app/src/main/assets/foot_magnets_convert_into_pressure.pt (torch, 39693 bytes, 9 tensors)

layers_a0.0.weight f4 [800, 3]
000000 c9 a7 cc be 90 69 90 3e 09 00 a4 be c4 b4 6c 3e
       -0.3997176 0.28205538 -0.32031277 0.23115832
000010 b6 3c 0c bf 70 1e db 3e 34 59 ee bc 10 92 9d bd
       -0.5478014 0.4279666 -0.02909527 -0.07693875
000020 82 ad 8a 3f bd c1 94 3c 81 08 33 bc 7b 3f ba 3f
       1.08342 0.018158788 -0.01092732 1.4550623
000030 dc aa 7c 3e 28 b8 df 3e 02 24 dd be 30 9f 06 bf
       0.24674553 0.43695188 -0.43191534 -0.5258665
000040 48 ea 26 3e 8f 92 8d be 4a 2c 87 3c d9 1f c2 be
       0.16300309 -0.27650878 0.01650061 -0.37914923
000050 4d e7 4b 3f 84 16 ab be e5 23 8c 3e 16 3c 3b 3f
       0.7964981 -0.33415616 0.27371135 0.7313856
000060 66 5b c6 3e 20 0e d3 3d 5c 8f 77 be 40 a5 34 3c
       0.38741606 0.103054285 -0.24175781 0.011025727
000070 26 8b c5 be d8 a3 1d be e2 23 4b 3e 44 1c b2 3e
       -0.38582724 -0.15394533 0.19837907 0.3478719
000080 6c 6d 80 be 78 43 86 3d 43 9c 14 bf 17 bb 93 3e
       -0.25083482 0.065558374 -0.58050936 0.28853676
000090 84 08 2a 3e 1c 67 ae be f8 cf c0 3e bb 55 7e 3e
       0.16604811 -0.3406304 0.37658668 0.24837391
0000a0 b1 53 a3 3e 0b c8 1a bf 30 ef 89 3c 30 2a e2 be
       0.3189979 -0.6046149 0.016837686 -0.44172812
0000b0 97 c3 37 3f 78 c4 0c 3f 99 89 bd 3e 8a a7 05 3e
       0.7178282 0.5498729 0.3701904 0.13052192
0000c0 56 0e a3 3e d8 01 c0 3e d6 9a 0c 3f 63 19 d3 bd
       0.31846875 0.37501407 0.5492376 -0.103075765
0000d0 66 fa b1 be e0 ce 56 3e 72 8b fa 3d f7 f4 e6 3e
       -0.3476135 0.20977354 0.12233628 0.45108768
0000e0 81 db fb 3e 18 d5 8e bc e0 ee d0 3c ae 2d a2 3e
       0.49190906 -0.017435595 0.02550453 0.31675476
0000f0 ed 93 79 bd 9c 30 b3 be 90 33 2c 3f 94 26 c3 3c
       -0.06093209 -0.34998024 0.6726618 0.023822106
000100 e6 2e f2 3b 4a 63 83 3e c8 3d 8f 3f 32 2a de bd
       0.0073908446 0.2566169 1.1190729 -0.10847892
000110 9c d1 f4 be 58 72 f6 be ed af b0 3e f4 b0 fa 3d
       -0.4781617 -0.48134112 0.3450922 0.122407824
000120 63 15 7d 3b 26 ce 91 3e b6 0c 31 bf e6 94 e2 be
       0.0038617484 0.2847759 -0.6916002 -0.44254225
000130 b8 98 3c 3f db 42 93 3e f6 d2 75 be 00 92 cb 3c
       0.7367053 0.28761944 -0.24006256 0.024849892
000140 06 ea b8 be 86 3e 11 3f 88 f2 d7 3e e0 fe d7 be
       -0.36116046 0.5673603 0.42177224 -0.42186642
000150 a3 f0 6f bc c2 13 f9 bb 02 6b f9 3e 62 eb 80 3e
       -0.014644775 -0.0076012323 0.48714453 0.25179583
000160 6c d3 e4 3e ee fd c0 3e 1a 47 a0 bd ee e7 49 3d
       0.44692552 0.37693733 -0.078260615 0.04929345
000170 3e c7 62 3f f4 49 b8 bd 92 7a 8c 3e 6d 74 99 be
       0.8858527 -0.089984804 0.27437264 -0.29971638
000180 c6 01 28 bb 0f b5 99 3c e7 4e a6 3e 34 90 d8 3e
       -0.0025635823 0.018763093 0.32482073 0.42297518
000190 cc 70 a9 bd 09 b5 00 bf 31 50 b4 be a0 79 98 3e
       -0.082734674 -0.5027624 -0.3521743 0.29780293
0001a0 53 93 b1 be 26 95 5c 3e fd 92 b9 be 31 59 ff 3d
       -0.34682712 0.2154127 -0.36244956 0.12468184
0001b0 07 b9 5b 3b ca d3 a8 bb 0e 49 88 3e 8a a0 87 b9
       0.0033527033 -0.0051522003 0.26618236 -0.00025868817
0001c0 49 c3 51 3a c4 b8 85 3e 34 f6 56 3d 7b 7e 03 3f
       0.0008001817 0.26117527 0.05248089 0.5136487
0001d0 44 f3 c9 be c4 09 04 be 4c 4b d0 3e 80 b3 fe bc
       -0.3944341 -0.1289435 0.40682447 -0.031091452
0001e0 83 71 a9 3e 2e a7 d0 bd 6e 3b 76 3c 7e 82 3f bc
       0.33094415 -0.10188137 0.015028818 -0.011688827
0001f0 bb 58 6c 3b 0e b6 e3 3e 0a 0e 99 3e 6d 1b 80 be
       0.003606363 0.44474834 0.29893523 -0.25020924
000200 80 ea c2 be df cf 91 3f 33 74 0a bf 60 dd 1c 3e
       -0.38069534 1.1391562 -0.54083556 0.15318823
000210 0c 0f f5 be 60 12 c0 3d d2 e3 98 be ca 44 85 bf
       -0.47863042 0.09378505 -0.29861313 -1.0411618
000220 b8 c4 33 3e 1e 9e 06 bf d0 82 1d be a9 6b 0d bf
       0.17555511 -0.5258502 -0.15381932 -0.552424
000230 ac c1 b8 be 43 d1 24 3a 13 dc 08 bd ef 02 9f 3e
       -0.3608526 0.0006287286 -0.033413004 0.31056926
000240 e1 3f 2b 3c aa 58 05 be 16 81 96 3f d6 cf bc 3e
       0.010452242 -0.13022104 1.1758144 0.36877316
000250 77 5b 96 be 58 d3 49 be fa d3 2e be f6 49 b8 be
       -0.29366657 -0.19709527 -0.1707305 -0.35993928
000260 cc 20 12 be 79 77 15 3f 0b f9 e7 3d d7 72 4b be
       -0.14270324 0.58385426 0.11326798 -0.19868027
000270 00 97 94 bf 31 eb 68 3e 3e 7c 16 bf 01 f2 94 3e
       -1.1608582 0.22745968 -0.5878333 0.29090884
000280 c6 ed 30 3d 7c fc 84 3d e4 cf c5 3e 3a 5e 6c bc
       0.04319551 0.0649347 0.3863517 -0.014426762
000290 c8 1a b5 be c7 da 79 be 51 06 cd bf c4 e2 c2 be
       -0.35371995 -0.24399863 -1.6017553 -0.38063633
0002a0 03 f5 a5 be 40 ce c4 bd d3 1d 99 be f4 1f a0 be
       -0.32413492 -0.096096516 -0.29905567 -0.31274378
0002b0 73 cd 0c 3f 59 e2 11 3e 3f ee 58 bf c1 a4 43 3f
       0.5500099 0.14246501 -0.84738535 0.7642327
0002c0 ae 13 1b 3e 4f 36 5f b9 77 dd fd 3b 8a 57 f9 3e
       0.15144226 -0.00021287169 0.007747348 0.486996
0002d0 42 97 12 be df a9 bb be 18 6a 5f 3f ed 8f 91 be
       -0.14315513 -0.3665304 0.8727126 -0.2843012
0002e0 2e d8 19 be 03 af 99 be cd 51 f0 3e 87 1a a6 3e
       -0.15023872 -0.30016336 0.4693741 0.32442114
0002f0 eb d7 ad be 1a ee 1c be 0a e5 c2 3d e8 0a 80 3f
       -0.33953795 -0.15325204 0.09516342 1.0003328
000300 00 2d 5d 3c 7e 0d 0a 3f 2e f8 6d be cb a4 7b bd
       0.013499498 0.5392684 -0.23239204 -0.061436456
000310 ac 3d 87 be 4f 1c 08 bf 65 06 e2 3d f8 aa 37 be
       -0.2641424 -0.53168195 0.11036376 -0.17936313
000320 88 bf 42 3f 66 ab 08 3d c4 05 61 be ff b3 4f 3f
       0.76073503 0.033366583 -0.21974856 0.8113403
000330 89 d1 30 3f 68 b8 f2 bd 50 c6 ad bd 8c 17 aa 3e
       0.69069725 -0.11851579 -0.08485091 0.3322109
000340 ef 79 88 3e 16 0d 4f 3d de 60 9a bc d5 d1 25 3c
       0.26655528 0.05054959 -0.018845018 0.010120829
000350 d1 c8 e0 3e f8 2e 91 be 96 9f 85 be bc e9 88 be
       0.4390321 -0.28356147 -0.26098317 -0.26740825
000360 78 99 fe be 1d e6 82 be 32 74 bf 3e d2 37 9b 3a
       -0.49726462 -0.25566188 0.37393337 0.0011842197
000370 5b 7a 25 bb a3 54 01 3f bf 11 3d 3f dc 3b 0f 3f
       -0.0025249931 0.5051977 0.73855203 0.55950713
000380 60 e0 7d bc 7e b2 3a be 3c c7 96 bf 63 0e 8f be
       -0.01549539 -0.18232152 -1.1779552 -0.27940664
000390 00 27 f7 3d 84 18 b8 3e 0a 60 ae be a4 3b c0 3e
       0.120679855 0.35956204 -0.34057647 0.37545502
0003a0 23 3b 99 bd 6c 75 97 be 60 89 b0 3d 9e 08 cf 3e
       -0.074819826 -0.29581773 0.08619952 0.40436262
0003b0 7e 74 ea be fd 60 dd be d1 39 5e 3c a7 50 0e 3e
       -0.45792 -0.4323806 0.013563589 0.13897954
0003c0 5b 4e 88 3e 9a 76 04 bf 0e d7 3b 3e 0f 09 e6 be
       0.2662228 -0.5174347 0.18343756 -0.44928786
0003d0 c9 d5 b6 be 00 51 ad be 93 2b 21 3f 53 b7 ab 3e
       -0.3570998 -0.3385086 0.62957114 0.33538303
0003e0 4d 2a da 3e 98 8e ba be b0 6c a5 be 30 10 d3 3d
       0.42610398 -0.36436915 -0.32309484 0.10305822
0003f0 b1 48 4a bb be b2 78 ba 01 e5 09 3f 64 b0 02 be
       -0.0030866081 -0.0009487084 0.5386506 -0.127626

layers_a0.0.bias f4 [800]
000000 ca bb 3b be 99 b3 0e bf 66 b6 09 3f 94 9e b5 3e
       -0.18333355 -0.55742794 0.5379394 0.35472548
000010 80 e9 08 bd d4 54 9c be 8a 4e 21 bc ea 37 e4 3e
       -0.033425808 -0.3053347 -0.009845385 0.4457391
000020 6a 11 1a be ec 15 ff be 0e 91 1d bd 0d 4c 44 be
       -0.15045705 -0.49821413 -0.038468413 -0.19169636
000030 94 bf ee be 23 9f 04 3e a9 e3 7b 3c cd 23 cd be
       -0.46630538 0.12951331 0.015374103 -0.40066376
000040 9a 20 1d 3e 37 b2 a2 3e 6e ac f7 be 97 cd 9b be
       0.15344468 0.31776592 -0.4837374 -0.3043029
000050 1d 41 da 3e a2 0a 56 be e6 f4 ad 3e 8a 0c e6 3e
       0.42627802 -0.20902494 0.33975905 0.44931442
000060 a6 ce 18 3f 84 52 6f bd 42 cf 1d be 50 a7 a2 be
       0.5969032 -0.058428302 -0.15411094 -0.31768274
000070 c0 a7 b8 be d4 2f 0f bf 74 6f c6 3e 00 a5 16 3d
       -0.36065483 -0.55932355 0.38756907 0.03677845
000080 40 b2 74 be ff 05 01 bf 40 30 4f bd 4b 84 91 be
       -0.23896122 -0.50399774 -0.050583124 -0.28421244
000090 00 9c 4b be 48 3c 4e be 04 10 0d 3f 7c 81 90 be
       -0.19883728 -0.20140183 0.5510256 -0.2822379
0000a0 b6 61 97 3e a2 b6 a6 be 97 a0 9e 3e f9 a4 5a bd
       0.29566735 -0.32561213 0.30981895 -0.053379986
0000b0 08 46 87 bc c4 28 c8 3e f4 2a c9 bd e6 d2 8d be
       -0.016512886 0.39093602 -0.09822646 -0.27699965
0000c0 9f ae 19 3a 70 f1 12 bf 44 fe 4a be a8 7e 21 be
       0.00058625074 -0.57399654 -0.19823557 -0.15770972
0000d0 40 d5 e1 3e 06 f4 93 3e f3 11 81 3d d4 44 bf 3d
       0.4410801 0.28897113 0.06302252 0.093393
0000e0 8e 39 fb be 9d 38 02 3f 7e 55 f3 bc 7a 3b b5 be
       -0.49067348 0.50867635 -0.029703852 -0.3539694
0000f0 07 53 11 3e 2e 5e 4f be d2 62 f0 3e 9a 49 c1 3e
       0.14191829 -0.2025077 0.46950394 0.37751466
000100 20 a9 30 bd 64 9f dc 3e f9 12 90 3e c8 ef 8f 3d
       -0.04313004 0.43090355 0.28139475 0.070281565
000110 9f e1 b1 3e 8a ad 6c be 8e f3 ab be 4e 58 37 be
       0.34742448 -0.23113075 -0.33584255 -0.1790478
000120 5b 23 ec be 6c 83 bb be 64 33 0d 3f c0 52 8b 3d
       -0.46120724 -0.36623704 0.5515654 0.06802893
000130 30 cd 9e bd 0c 5f b6 3c cf 3e 9b be 84 67 7a be
       -0.0775398 0.022262119 -0.30321357 -0.2445355
000140 ad 08 ca be 8f a9 94 be c8 ec 10 3f 32 67 e5 be
       -0.39459744 -0.29035613 0.566113 -0.44805294
000150 d7 50 c5 be db fb 7f bd 2d 36 0a bf a2 6a 80 3e
       -0.38538238 -0.062496047 -0.53988916 0.25081354
000160 89 2c 88 3e d7 54 84 3d c2 31 97 be aa 13 0e 3f
       0.26596478 0.064614944 -0.2953015 0.55498755
000170 77 de ee 3e df bd 38 3e f3 d1 b4 be 3a dd 59 be
       0.46654102 0.1804118 -0.3531643 -0.21275797
000180 a0 4a 0c bf 0c 3d d7 be cc be 85 bd 30 f3 7c be
       -0.5480137 -0.42038763 -0.06530532 -0.24702144
000190 42 ac 0c 3f d5 53 10 bf ae aa 08 bf d5 2a d0 3c
       0.54950345 -0.5637792 -0.53385437 0.025411049
0001a0 d2 3a 0f 3f fa 9e 1f be b2 5e 9e 3b 1d 1d 4b 3d
       0.5594913 -0.15587988 0.004833066 0.04958831
0001b0 00 a0 c1 3c 8c 5d 03 bf 7f 87 ef be b4 dc 65 3e
       0.023635864 -0.51314616 -0.46783063 0.22447473
0001c0 e7 31 97 be 4e 68 b1 be a3 13 f7 3e 0e 35 59 be
       -0.2953026 -0.3464989 0.4825717 -0.21211645
0001d0 2c d5 cd be 3d a4 b8 be b8 d6 52 3d 6e f1 b5 3d
       -0.402017 -0.36062804 0.051474303 0.0888394
0001e0 39 a2 2e be 09 67 0f 3d b6 47 e7 bd 8d b3 bc 3e
       -0.1705407 0.03501037 -0.11292975 0.36855736
0001f0 fb 53 c0 3e 12 e4 7f 3e c3 00 ef 3e b5 b7 ed 3d
       0.37564072 0.24989346 0.4668027 0.11607305
000200 87 5e 74 3e 50 7c a6 be b3 68 b1 3d 63 1d 22 bc
       0.23864184 -0.32516718 0.08662548 -0.009894702
000210 e7 0c 15 3d b3 f1 14 3f 42 bf b7 be a7 27 37 3e
       0.036389258 0.58181304 -0.35888106 0.1788622
000220 d3 1f 53 be f5 48 8e be 55 4b e1 3e 61 ab cb 3d
       -0.20617609 -0.27790037 0.44002786 0.09944797
000230 46 d5 d0 be 6d c7 4b 3f 7e af ea be a6 71 cc 3e
       -0.40787715 0.79601175 -0.45837015 0.39930457
000240 a3 68 99 3d 50 e2 d8 be 86 bd 0b be ae c4 d4 be
       0.07490661 -0.42360163 -0.13646516 -0.41556305
000250 93 e9 a5 be cf da c2 be 44 72 b7 be 6a ca a3 be
       -0.32404765 -0.38057563 -0.35829365 -0.31990367
000260 b0 a6 7b 3e ff cd ad 3d aa 55 d1 3e 97 b2 fa 3e
       0.24575305 0.08486556 0.4088567 0.48964378
000270 93 86 8a 3d 8b 87 11 3f 35 2c e7 3e 11 b6 0d 3f
       0.06763949 0.5684745 0.45150915 0.55355936
000280 c6 ca c7 be 1f 41 11 bf 6a 58 a6 3e 33 54 b7 3d
       -0.3902189 -0.5673999 0.3248933 0.089516066
000290 f3 10 35 3c 72 ad 23 3e 51 ac 35 be 25 7e 84 be
       0.011051404 0.15984133 -0.17741515 -0.2587749
0002a0 6e b0 8d bd a4 1f aa bc e4 da 08 bf 86 d7 ae be
       -0.06918417 -0.02076704 -0.53459 -0.34148806
0002b0 3b bf 82 3d 1e 48 e9 be 6e 84 77 3e ac b4 48 be
       0.063841306 -0.45562834 0.24171612 -0.19600171
0002c0 eb 82 4d bd 7a 92 97 3e bb 3e 0d bf bb 68 b8 3e
       -0.05017368 0.2960394 -0.55173844 0.36017403
0002d0 61 3b 74 be f5 e6 10 3f 54 ad 5c be b5 b5 17 3d
       -0.23850776 0.5660241 -0.21550494 0.037038524
0002e0 cd 1a 5b be b9 0b 0d 3f b4 2e af be 41 6e 92 3d
       -0.21396942 0.5509601 -0.3421532 0.071499355
0002f0 a6 2f 7a be 46 d8 d8 be f7 ed bb be d6 be 9b 3e
       -0.24432239 -0.42352504 -0.3670499 0.30419034
000300 5e d4 28 be 90 2d 20 bd 10 d7 f1 bc 7b 28 4f be
       -0.16487262 -0.03910595 -0.029521495 -0.20230286
000310 90 04 2d be aa c5 46 be 74 3f e0 be 40 8c 1b 3e
       -0.16896272 -0.1941134 -0.4379841 0.1519022
000320 81 e6 0e bf a6 6f 95 3d 86 90 a9 be 16 1f 0c 3f
       -0.5582047 0.07296686 -0.33118075 0.54734933
000330 1c 73 ed 3e 2f 5a 0d 3f 05 98 c7 be 58 d0 02 3f
       0.46376884 0.55215734 -0.3898317 0.5109916
000340 e3 3b 10 bf c3 70 b1 be c2 e9 20 be 9d 4f 8a be
       -0.5634138 -0.34656343 -0.15714172 -0.27013865
000350 b5 14 dc be 3b b9 d0 be 0c ed ee be 13 72 ee 3e
       -0.42984548 -0.4076632 -0.46665227 0.46571407
000360 a4 a7 f5 3e 5e 35 9a 3e 7f c7 85 be 59 b2 00 3f
       0.47979462 0.3011884 -0.26128766 0.50272137
000370 81 32 eb be f2 ac 0a bf 4b bf 96 be be 09 fe be
       -0.4593697 -0.54170144 -0.2944282 -0.49616808
000380 ac 43 d5 bc 1d 3b 8f be c4 16 9f be 09 bc fe 3e
       -0.026033245 -0.27974787 -0.31072056 0.49752834
000390 e1 d7 ed 3e 70 31 db be 4e 01 d6 be ee b5 98 be
       0.46453765 -0.42811155 -0.4179787 -0.298263
0003a0 49 ef 9e be 85 5a 81 be 84 95 26 3e 4a 43 ff 3e
       -0.31041935 -0.25264373 0.16267973 0.49856025
0003b0 99 73 c9 be 15 c1 9b 3d c0 72 bb be 3a 22 b3 3c
       -0.39346007 0.07605187 -0.36610985 0.021866906
0003c0 29 84 55 bd 7d a6 08 3f ca 41 13 bf c5 74 38 be
       -0.05212799 0.5337904 -0.5752226 -0.18013294
0003d0 99 5d 56 be dc bc fa bd d0 f6 97 3d 8e 74 de be
       -0.20934142 -0.12243053 0.074201226 -0.434483
0003e0 23 b5 d8 3d 0b 5d 12 bf 90 68 cc 3d 15 ab 84 3e
       0.10581424 -0.5717322 0.09980881 0.25911775
0003f0 0d 96 10 bf 05 30 bc 3e b2 a2 ad be cf fa ec 3e
       -0.5647896 0.36755386 -0.3391319 0.46285102

layers_a0.2.weight f4 [800]
000000 00 00 80 3f 00 00 80 3f 7a 89 50 3d 12 e8 5a 3d
       1.0 1.0 0.050912358 0.053443976
000010 00 00 80 3f 00 00 80 3f 7f cf 4a 3d 25 d5 2e bd
       1.0 1.0 0.04951429 -0.04268374
000020 00 00 80 3f 00 00 80 3f c3 fa 7a 3f 6c fc b3 bd
       1.0 1.0 0.9803888 -0.0878838
000030 00 00 80 3f eb 03 6b 3f b0 25 5e 3d e8 cc 76 3f
       1.0 0.91802853 0.05423516 0.9640641
000040 9e 2d 08 bd ff 0b 33 3d 5e ce 75 3f e8 d9 b7 3d
       -0.03324663 0.043712612 0.96018016 0.08977109
000050 3e 76 3b 3d d8 ef ec 3d 85 3b 83 3d d3 88 82 b9
       0.04576706 0.11569184 0.06407837 -0.00024897474
000060 c2 66 53 3d 2a 62 87 3d 00 00 80 3f 00 00 80 3f
       0.05161167 0.0661052 1.0 1.0
000070 87 db 49 3f 00 00 80 3f a3 cb b8 b8 00 00 80 3f
       0.788506 1.0 -8.811734e-05 1.0
000080 3b 2b 16 3e 00 00 80 3f 00 00 80 3f ab 6a 5e 3f
       0.14664929 1.0 1.0 0.8688151
000090 09 8a 30 3e e1 c5 3c 3f 83 e7 31 3d 00 00 80 3f
       0.17240156 0.7373944 0.043433677 1.0
0000a0 06 04 75 bb 30 2d 44 3e 2f 1c 35 3d 67 16 91 3d
       -0.0037386431 0.19157863 0.04421633 0.07084351
0000b0 a0 90 7a 3f ca fc 81 3d 00 00 80 3f 42 cd cb 3d
       0.9787693 0.06347044 1.0 0.09951259
0000c0 1d f7 5d 3d 00 00 80 3f 00 00 80 3f 69 02 18 3c
       0.054190744 1.0 1.0 0.009277918
0000d0 f4 08 83 3d 26 b6 90 34 52 04 64 3f 88 07 a4 3d
       0.06398192 2.695462e-07 0.8906909 0.08009249
0000e0 00 00 80 3f f6 b4 c4 33 bd 78 a8 3d 11 85 2b 3e
       1.0 9.159878e-08 0.08226154 0.1674998
0000f0 44 e3 5f 3d 00 00 80 3f 74 c4 0c bd 2e 88 4c 3d
       0.054660097 1.0 -0.03436704 0.04993456
000100 00 00 80 3f 26 bb 1d 3d 3a 9c 4e 3d 1f e4 52 3d
       1.0 0.038508557 0.050441958 0.051487084
000110 4b 9a a7 38 16 90 5c 3f 6b 2a 1c 3e 00 00 80 3f
       7.99192e-05 0.8615736 0.15250556 1.0
000120 f5 d2 6f 3f 76 c4 92 3e 83 e3 92 3a 2d f9 a7 3d
       0.9368127 0.28665513 0.001120672 0.082018234
000130 00 00 80 3f cb 2e 43 3f 00 00 80 3f e3 d9 9b 3d
       1.0 0.76243275 1.0 0.07609918
000140 b2 68 7a 3f 00 00 80 3f 4a 22 dc 3c 00 00 80 3f
       0.97816 1.0 0.026871819 1.0
000150 65 7c 63 3e 73 d0 52 3d 00 00 80 3f 1b f0 54 3d
       0.22215421 0.051468324 1.0 0.051986795
000160 2e 6b cf bc 4b 29 a0 3d 9b e8 7c 3f 60 0d 03 b6
       -0.025319662 0.07820376 0.9879243 -1.9528306e-06
000170 18 68 ee bc 33 94 55 3d fd 06 26 3e 03 d0 57 3f
       -0.02910237 0.052143287 0.16213603 0.84301776
000180 00 00 80 3f 00 00 80 3f 31 7a 55 3d d3 2e cb 3d
       1.0 1.0 0.052118484 0.099210404
000190 51 f3 b0 3c 00 00 80 3f 00 00 80 3f b8 2f 4a 3f
       0.021600397 1.0 1.0 0.78979063
0001a0 0e 36 01 3b 00 00 80 3f dd cc c6 3e 36 84 7c 3f
       0.0019716057 1.0 0.38828173 0.9863924
0001b0 00 00 80 3f 00 00 80 3f 00 00 80 3f 94 57 59 3d
       1.0 1.0 1.0 0.053062037
0001c0 5b 67 52 3f 0e 69 21 3f 84 3c a5 3c 00 00 80 3f
       0.8218896 0.63050926 0.020170458 1.0
0001d0 00 00 80 3f ae a1 e1 3d fb e8 ae 3d 01 60 a0 3d
       1.0 0.11017166 0.08540531 0.07830811
0001e0 96 32 8e 3d f0 a0 9b 3d a7 5c b8 3d ec 2b 50 36
       0.06943242 0.07599056 0.09002047 3.1019981e-06
0001f0 94 02 51 3d f9 22 12 bd 46 f3 0a 39 42 f4 65 3f
       0.05102785 -0.035677884 0.00013251332 0.8982583
000200 95 f8 55 3d 00 00 80 3f 56 1b a9 3d 2b 30 77 3f
       0.05223902 1.0 0.08257167 0.96557873
000210 eb d8 98 3d f9 78 56 35 00 00 80 3f 63 7c cd 38
       0.07463249 7.989725e-07 1.0 9.7983306e-05
000220 78 9a ae 3d 00 00 80 3f d0 ec 46 3d 34 63 78 3f
       0.08525556 1.0 0.048565686 0.9702637
000230 6b a2 73 3e 7d 42 5a 3d 00 00 80 3f d8 71 0a bd
       0.23792426 0.053286064 1.0 -0.033799976
000240 f5 73 46 3d 00 00 80 3f 1c 2b 8e 3d 49 57 26 3e
       0.04845043 1.0 0.06941816 0.16244234
000250 00 00 80 3f f1 04 7f 3e 00 00 80 3f 00 00 80 3f
       1.0 0.24904229 1.0 1.0
000260 7b c0 a2 b8 3f 6f 9c 3d 78 98 42 b6 e7 4a 07 ba
       -7.760614e-05 0.07638406 -2.8997001e-06 -0.00051610026
000270 77 bf 9b 3d ed 49 1e ba e6 70 8d 3d b9 9b ce 39
       0.076048784 -0.00060382375 0.06906299 0.00039407404
000280 00 00 80 3f 00 00 80 3f 43 19 13 bd c3 8a a5 3d
       1.0 1.0 -0.035912763 0.08083107
000290 bb b8 b6 3d 17 fc b7 3d 5e 74 95 3d 00 00 80 3f
       0.08921953 0.08983629 0.07297586 1.0
0002a0 a8 36 a7 3d 7e 47 52 3d 00 00 80 3f 00 00 80 3f
       0.08164722 0.05133771 1.0 1.0
0002b0 05 5d 41 3d 00 00 80 3f f9 7a ab 3d 00 00 80 3f
       0.04720785 1.0 0.083730645 1.0
0002c0 8c c3 45 3d 94 c8 a6 3c 00 00 80 3f c5 7e 0a 3c
       0.04828219 0.020359315 1.0 0.008453076
0002d0 00 fa ab 3d e1 51 a1 36 00 00 80 3f 78 54 9d 3d
       0.08397293 4.807706e-06 1.0 0.07682127
0002e0 ca 18 7b 3f 0c 97 19 b8 00 00 80 3f 75 eb 9f 3d
       0.980847 -3.6618716e-05 1.0 0.07808582
0002f0 00 00 80 3f 00 00 80 3f 00 00 80 3f 44 0c 84 3d
       1.0 1.0 1.0 0.06447652
000300 00 00 80 3f 00 00 80 3f 6e 32 70 3f fd 7d cb 3e
       1.0 1.0 0.9382695 0.3974456
000310 00 00 80 3f 00 00 80 3f 00 00 80 3f ad 5e 66 3d
       1.0 1.0 1.0 0.056242634
000320 00 00 80 3f 9a 1e 4a 3f f8 de 01 3f eb 61 90 3b
       1.0 0.78952944 0.5073085 0.004406204
000330 dc f4 ba bc 40 d5 cc 37 1c 37 22 3f 9b 56 22 bd
       -0.022821836 2.4417997e-05 0.6336534 -0.039633375
000340 00 00 80 3f 8a 93 13 3e 00 00 80 3f 1d 71 08 3e
       1.0 0.1441175 1.0 0.133244
000350 00 00 80 3f 7e c7 3d 3f 00 00 80 3f 26 6a bb bc
       1.0 0.74132526 1.0 -0.022877764
000360 67 e5 43 3d 04 c4 a2 39 00 00 80 3f 13 f5 2c bd
       0.047826197 0.0003104509 1.0 -0.04222591
000370 00 00 80 3f 00 00 80 3f 00 00 80 3f 00 00 80 3f
       1.0 1.0 1.0 1.0
000380 55 df 89 3d 8a 2c b0 3e 00 00 80 3f 96 62 b3 b8
       0.0673205 0.3440898 1.0 -8.553748e-05
000390 2c e4 59 3d 00 00 80 3f 3b 03 f1 3e ea 2d 78 3f
       0.053196117 1.0 0.47072777 0.9694506
0003a0 b4 d1 71 3f 00 00 80 3f 54 ad ae 3d ba ab a6 3c
       0.94460607 1.0 0.085291535 0.020345557
0003b0 09 f6 79 3f ec 00 a1 3d b3 99 d5 3e 33 9d 63 3f
       0.97641045 0.07861504 0.41718826 0.8891174
0003c0 a3 c1 a8 3d fe 3f 4e 3d 00 00 80 3f 05 27 28 3f
       0.08240058 0.050353996 1.0 0.6568454
0003d0 dc 28 2f 3e 00 00 80 3f f0 30 81 3d 73 a0 6b 3f
       0.1710543 1.0 0.06308162 0.920417
0003e0 e7 62 4b 3d 00 00 80 3f 4c ee 42 3d ee 6c 79 38
       0.049654868 1.0 0.04759054 5.9467675e-05
0003f0 00 00 80 3f 67 cf 7c 3d 00 00 80 3f 10 6d 90 b9
       1.0 0.06172123 1.0 -0.00027547078

layers_a0.2.bias f4 [800]
000000 59 89 9e 35 bb 1a 0d 39 84 c6 8b b9 90 1d 33 3a
       1.1811891e-06 0.00013456766 -0.00026660052 0.0006832713
000010 9a 43 00 b7 59 88 70 35 cf 68 db ba e8 db d9 3a
       -7.645134e-06 8.960538e-07 -0.001673961 0.0016621323
000020 c4 45 41 b8 51 ea d0 37 fe c8 a6 37 28 5a 4a 3a
       -4.607976e-05 2.4904644e-05 1.9882336e-05 0.0007719123
000030 a0 51 7c 34 18 3f 09 35 4f 92 87 3a 5f b2 ca b5
       2.3499024e-07 5.112829e-07 0.0010343286 -1.5102086e-06
000040 77 e7 ed 3a 20 0d 81 3a 26 94 82 39 87 28 f3 b5
       0.0018150647 0.000984583 0.0002490591 -1.8116706e-06
000050 d0 6b 92 bb 93 13 51 35 1d 22 67 3a 47 e0 d8 b8
       -0.0044684187 7.788705e-07 0.0008817034 -0.000103414575
000060 31 08 0f 3b d9 25 12 3a a8 c6 91 36 92 07 db b1
       0.002182495 0.0005575098 4.3444634e-06 -6.3745995e-09
000070 26 43 0e 3a 8d 25 54 ba 07 f8 5d 37 6d 91 5b 34
       0.0005426876 -0.00080927537 1.3230375e-05 2.044887e-07
000080 fb 07 8c 39 61 c3 52 36 ee 93 56 b6 ed de 41 39
       0.00026708827 3.1406164e-06 -3.1974591e-06 0.0001848896
000090 42 32 e3 39 ec aa c3 3a 58 09 2d 3b 7a 59 77 38
       0.0004333426 0.0014928258 0.0026403274 5.897272e-05
0000a0 58 97 c0 ba 7d b7 01 39 73 a8 bc 39 88 37 ed 39
       -0.0014693541 0.00012370753 0.0003598366 0.00045245537
0000b0 6a a1 92 b6 16 88 5f 39 f8 4b 44 b9 c2 89 dc 35
       -4.36993e-06 0.00021317633 -0.00018720317 1.643137e-06
0000c0 0d 09 04 ba 1e 7b 1a b9 b0 04 f5 36 ca a9 1b 39
       -0.0005036749 -0.00014732449 7.3021147e-06 0.00014845203
0000d0 6e 53 b6 ba d5 cc b5 33 c5 b8 45 36 c7 7f 0e ba
       -0.0013910362 8.465728e-08 2.9462838e-06 -0.00054359104
0000e0 aa a1 9d 37 b2 69 7c 32 92 1a 92 3a 67 52 2a b8
       1.879114e-05 1.4692363e-08 0.0011146835 -4.06079e-05
0000f0 0d e4 b1 3a e8 af a3 b9 7d 79 b5 ba 92 75 1a ba
       0.0013571993 -0.00031220843 -0.001384541 -0.0005892153
000100 e4 e1 8f b8 67 84 87 3b ea 22 7a bb bc 11 d5 39
       -6.860847e-05 0.0041356566 -0.0038167783 0.0004063974
000110 b2 02 ae b7 2a 5d bd 3a 5c cd e3 38 68 d1 32 b6
       -2.0743671e-05 0.0014447321 0.00010862455 -2.6645957e-06
000120 b8 25 9e b9 39 6f bc ba 82 82 bd b9 04 5e d2 ba
       -0.0003016421 -0.0014376409 -0.00036146125 -0.0016049747
000130 59 31 17 35 66 84 87 34 dc 06 d7 b6 95 d2 23 b7
       5.6323694e-07 2.5242042e-07 -6.408298e-06 -9.764587e-06
000140 b4 09 75 b9 65 ff 92 b5 24 03 a2 3a b4 d6 4d 38
       -0.00023368635 -1.0952177e-06 0.0012360555 4.9075767e-05
000150 30 17 15 b9 74 bb c8 ba 5a 07 8a b6 c8 87 25 3b
       -0.00014218385 -0.0015314654 -4.1135763e-06 0.0025257934
000160 7d c9 35 ba ff 67 8e bb 20 f6 5b b8 88 2e f8 b4
       -0.0006934626 -0.0043458934 -5.244289e-05 -4.6227456e-07
000170 89 15 ae 3a b2 17 a0 39 3a 42 c4 39 45 1b 22 b7
       0.0013281564 0.00030535233 0.00037433376 -9.662302e-06
000180 4e 29 16 b7 6d 94 04 b7 9b 8f 51 38 5d 99 0d b7
       -8.950314e-06 -7.902371e-06 4.9963226e-05 -8.439963e-06
000190 3e 06 66 39 64 1e 78 ba ef dd 08 32 60 7d a0 36
       0.00021936835 -0.0009464978 7.966704e-09 4.782967e-06
0001a0 3a 96 7e 39 e2 bf a2 36 57 e4 91 35 9c ec e8 b7
       0.00024279291 4.8503143e-06 1.0869798e-06 -2.7766735e-05
0001b0 60 31 8a b8 9f 29 3c b7 7c 87 9a b6 fe 35 a8 ba
       -6.5895496e-05 -1.1215364e-05 -4.60533e-06 -0.0012833474
0001c0 63 51 e4 38 41 e1 1a ba d9 9f 5f ba 92 52 2e 37
       0.00010887047 -0.0005908199 -0.0008530594 1.0390433e-05
0001d0 e7 c7 99 37 5e 2a 06 bb 25 e7 a0 3a 78 72 08 b9
       1.8332108e-05 -0.002047203 0.0012275918 -0.00013012614
0001e0 f1 bc 88 ba 69 20 1e bb df 2c 3c 3b 2c 6c e1 b5
       -0.0010432285 -0.0024128205 0.0028713269 -1.6795289e-06
0001f0 25 07 5c bb c7 a4 53 bb 34 c9 64 38 46 2e b8 b9
       -0.0033573594 -0.003229426 5.454682e-05 -0.0003512969
000200 4d dd d3 ba fd d1 07 b7 8a bf 16 ba da 8a e8 b6
       -0.0016163975 -8.095519e-06 -0.00057505874 -6.9303032e-06
000210 16 9f 85 b9 c4 fe 59 b3 b8 a7 f6 b8 88 c8 de 35
       -0.00025486265 -5.0755958e-08 -0.00011761434 1.6598651e-06
000220 a0 e5 92 ba db e7 9f b8 ab bc 69 bb 98 2e 51 36
       -0.001120735 -7.624897e-05 -0.0035665433 3.1170548e-06
000230 60 3b 8d 39 bf a7 88 3a 88 08 83 36 05 a8 cf 3a
       0.00026937854 0.0010425969 3.9050974e-06 0.001584292
000240 c3 00 43 bb 75 7c 9a b8 30 3d 0a bb 48 65 2b ba
       -0.0029755093 -7.366474e-05 -0.00210936 -0.00065382244
000250 08 b4 aa b7 fd 20 ab 3a 04 d7 85 b9 41 04 05 b5
       -2.0349413e-05 0.0013056096 -0.00025527936 -4.955255e-07
000260 5a b1 64 b7 0d f8 c9 3a 7d 03 c9 b5 3d e7 49 ba
       -1.3631152e-05 0.0015409008 -1.4976682e-06 -0.00077019987
000270 49 82 e3 3a 01 9c 23 39 9e e1 57 ba d2 55 1c 3a
       0.0017357554 0.00015603007 -0.00082352187 0.0005963716
000280 84 73 74 37 b0 ad 43 b5 66 29 94 3a 4a 6e 91 ba
       1.4570429e-05 -7.289591e-07 0.0011303842 -0.0011095491
000290 ce 6d ba ba 38 5f 15 ba 54 65 43 3b 0a 69 1e 36
       -0.0014223398 -0.00056980876 0.0029815035 2.3604975e-06
0002a0 b0 14 dd 3a 8a f1 2c bb b2 f2 73 ba f7 7d 26 b7
       0.0016867127 -0.0026389086 -0.0009305879 -9.9236995e-06
0002b0 90 52 a4 bb f4 ec 6b 39 87 a8 1c bb 82 fa 37 b6
       -0.005014725 0.00022499618 -0.002390416 -2.741494e-06
0002c0 98 fc 53 bb 59 6e 08 bb 7d 95 40 b9 e7 c6 9e 3a
       -0.0032346603 -0.0020817725 -0.00018366236 0.0012113721
0002d0 3f 1d 60 3a 8b 5f 23 b7 41 92 08 b7 93 54 d2 ba
       0.000854928 -9.737802e-06 -8.140284e-06 -0.0016046934
0002e0 70 67 a4 39 f6 8d 0f b8 06 8c d4 b8 b4 01 62 bb
       0.00031357585 -3.422607e-05 -0.00010135029 -0.0034485878
0002f0 b4 49 0f b8 62 1e 63 b6 1b 09 d7 39 38 24 83 3b
       -3.41625e-05 -3.384332e-06 0.0004101478 0.0040021203
000300 8a 10 35 37 68 a1 e3 b6 8c ea f7 b8 17 df 0b 39
       1.07922915e-05 -6.7839173e-06 -0.000118215656 0.0001333918
000310 58 39 81 b7 11 8e 8e b7 68 5d b6 37 1e 2f b0 3a
       -1.5404701e-05 -1.6993874e-05 2.1739586e-05 0.0013441776
000320 a7 cc cb b6 b8 77 36 39 d8 3d 01 ba c6 70 f9 b8
       -6.073696e-06 0.00017401471 -0.0004930175 -0.00011894251
000330 8d c6 ca 39 50 94 cc b8 f9 58 de 39 36 f8 40 bb
       0.00038676374 -9.7551034e-05 0.0004240943 -0.002944482
000340 1c 1a ed 39 82 1a 06 b6 da a1 e5 35 d5 1f 9c b8
       0.00045223616 -1.9982986e-06 1.7108935e-06 -7.444589e-05
000350 07 2d cf b8 41 14 e9 36 94 37 31 3a e8 59 3a b9
       -9.878916e-05 6.946299e-06 0.0006760296 -0.00017771835
000360 69 53 71 3b c6 61 00 ba 12 18 92 b8 96 90 81 b8
       0.0036823398 -0.0004897382 -6.966306e-05 -6.1781306e-05
000370 0f 40 23 38 1d 1b 6e ba 09 0b 3a b9 69 63 51 39
       3.8921888e-05 -0.00090830197 -0.00017742453 0.00019968826
000380 f4 b7 5b 39 1a 6a 55 38 0a 54 c8 31 71 c3 9d 37
       0.00020953995 5.0881972e-05 5.8303202e-09 1.8806868e-05
000390 64 4d 13 3b 70 4a 51 36 04 1d 7e b9 16 7a 80 b8
       0.0022476548 3.1186755e-06 -0.00024234137 -6.126256e-05
0003a0 27 3c 6b b5 c2 fc b7 b8 bd 5a 97 3a 36 01 14 39
       -8.7631855e-07 -8.7732e-05 0.0011547428 0.00014114831
0003b0 58 7d c3 b4 35 fa 32 bb 33 55 3e 35 25 d4 a5 b4
       -3.641278e-07 -0.002730978 7.0904497e-07 -3.0888e-07
0003c0 f1 f3 56 3b a4 87 d6 ba ef 1d 8d ba 4c 99 c0 b9
       0.003279921 -0.0016367328 -0.0010766367 -0.0003673531
0003d0 06 73 3f b8 e3 13 bd b9 49 02 8a 3a a2 39 77 b6
       -4.5645073e-05 -0.00036063706 0.0010529245 -3.6839415e-06
0003e0 a5 7f 0a bb 9d 2e e5 38 a2 e8 8c bb 85 ed 52 38
       -0.002113321 0.00010928253 -0.004300193 5.028911e-05
0003f0 ea 9f 69 b6 38 c0 fb 37 64 88 2b 36 5d 35 ae 3a
       -3.4812788e-06 3.001104e-05 2.5560375e-06 0.001329105

layers_a0.2.running_mean f4 [800]
000000 00 00 00 00 00 00 00 00 d3 c3 8b 3f 63 cb 8b 3f
       0.0 0.0 1.0919136 1.0921444
000010 00 00 00 00 00 00 00 00 97 25 d7 3e 0a 31 4c 3f
       0.0 0.0 0.42020866 0.7976233
000020 00 00 00 00 00 00 00 00 04 00 00 00 0e 55 04 3d
       0.0 0.0 6e-45 0.032307677
000030 00 00 00 00 04 00 00 00 87 f1 d1 3e 04 00 00 00
       0.0 6e-45 0.41004583 6e-45
000040 e2 d4 ce 3e 81 cd e5 3e 04 00 00 00 04 00 00 00
       0.40396792 0.4488335 6e-45 6e-45
000050 9c b0 4a 3f 04 00 00 00 e3 46 f1 3d fe e3 f9 3e
       0.79175735 6e-45 0.11781099 0.48806757
000060 8e 10 68 3e 43 64 43 3d 00 00 00 00 00 00 00 00
       0.22662565 0.04770304 0.0 0.0
000070 04 00 00 00 00 00 00 00 e2 31 55 3f 00 00 00 00
       6e-45 0.0 0.8327924 0.0
000080 04 00 00 00 00 00 00 00 00 00 00 00 04 00 00 00
       6e-45 0.0 0.0 6e-45
000090 04 00 00 00 04 00 00 00 a4 3b a1 3e 00 00 00 00
       6e-45 6e-45 0.31490815 0.0
0000a0 45 c2 9e 3e 04 00 00 00 c3 81 0b 3e 39 73 97 3d
       0.3100759 6e-45 0.13623719 0.07395024
0000b0 04 00 00 00 94 6a 05 3e 00 00 00 00 04 00 00 00
       6e-45 0.13028938 0.0 6e-45
0000c0 98 e9 1a 3f 00 00 00 00 00 00 00 00 04 00 00 00
       0.60512686 0.0 0.0 6e-45
0000d0 42 2d 17 3e 87 d1 a2 3e 04 00 00 00 3e c6 50 3d
       0.14763358 0.31800482 6e-45 0.05097031
0000e0 00 00 00 00 78 e7 0a 3f 87 75 d0 3c 04 00 00 00
       0.0 0.54259443 0.025446666 6e-45
0000f0 bf 2a 1c 3f 00 00 00 00 88 e6 8b 3e 1d af 60 3f
       0.61002725 0.0 0.2732432 0.877672
000100 00 00 00 00 31 07 3a 3e 4b d5 2d 3f e4 31 fe 3e
       0.0 0.18166806 0.67903584 0.4964744
000110 e1 3f 9f 3e 04 00 00 00 04 00 00 00 00 00 00 00
       0.31103423 6e-45 6e-45 0.0
000120 04 00 00 00 04 00 00 00 4a 86 00 3f fb aa 18 3d
       6e-45 6e-45 0.5020491 0.037272435
000130 00 00 00 00 04 00 00 00 00 00 00 00 04 00 00 00
       0.0 6e-45 0.0 6e-45
000140 04 00 00 00 00 00 00 00 4a a5 41 3f 00 00 00 00
       6e-45 0.0 0.75642836 0.0
000150 51 f9 e7 39 df 94 dd 3e 00 00 00 00 24 7e 40 3f
       0.0004424551 0.43277642 0.0 0.75192475
000160 d8 15 b3 3e 54 b8 46 3c 04 00 00 00 69 98 05 3f
       0.34977603 0.012128908 6e-45 0.52185684
000170 3b 3d 29 3f 57 d0 f9 3d 04 00 00 00 04 00 00 00
       0.66109055 0.12197941 6e-45 6e-45
000180 00 00 00 00 00 00 00 00 83 35 bf 3e 04 00 00 00
       0.0 0.0 0.37345514 6e-45
000190 29 87 01 3f 00 00 00 00 00 00 00 00 04 00 00 00
       0.50596863 0.0 0.0 6e-45
0001a0 c0 43 06 3f 00 00 00 00 04 00 00 00 04 00 00 00
       0.5244713 0.0 6e-45 6e-45
0001b0 00 00 00 00 00 00 00 00 00 00 00 00 a6 6a 03 3f
       0.0 0.0 0.0 0.5133461
0001c0 04 00 00 00 04 00 00 00 73 2e 17 3f 00 00 00 00
       6e-45 6e-45 0.5905525 0.0
0001d0 00 00 00 00 9a 16 05 3c 13 6e 38 3c 0c 75 41 3d
       0.0 0.008123064 0.0112567125 0.047230765
0001e0 4f ff df 3c a7 a6 88 3d 2d 8c ea 3a 5f ac b2 3e
       0.02734342 0.066724114 0.0017894559 0.34897134
0001f0 a8 56 3a 3f c0 13 e8 3d ea c8 f4 3e 04 00 00 00
       0.72788477 0.11331892 0.47809535 6e-45
000200 1a c5 3c 3f 00 00 00 00 6d 20 ea 3b 04 00 00 00
       0.73738253 0.0 0.0071449787 6e-45
000210 89 a3 8f 3d 75 e6 1d 3f 00 00 00 00 75 1b 70 3e
       0.07013614 0.61679775 0.0 0.23447974
000220 1b 32 c7 3c 00 00 00 00 a5 82 67 3f 04 00 00 00
       0.024315884 0.0 0.9043372 6e-45
000230 04 00 00 00 65 07 85 3e 00 00 00 00 54 67 0e 3f
       6e-45 0.25982204 0.0 0.55626416
000240 b9 6d d9 3e 00 00 00 00 e9 7a af 3c 04 00 00 00
       0.42466524 0.0 0.021420913 6e-45
000250 00 00 00 00 b9 fc cc 39 00 00 00 00 00 00 00 00
       0.0 0.00039098205 0.0 0.0
000260 fa 31 b8 3e 96 58 39 3d 20 13 06 3f 16 99 ce 3e
       0.3597563 0.045250498 0.5237293 0.4035117
000270 b4 0d 18 3d 56 5f 11 3f 16 7e 20 3e 1e 3c f5 3e
       0.037122443 0.56786096 0.15673098 0.47897428
000280 00 00 00 00 00 00 00 00 59 87 34 3e 6a 0c 43 3d
       0.0 0.0 0.17629756 0.04761926
000290 6f b4 76 3c b7 c0 1e 3c 0b e3 e5 3c 00 00 00 00
       0.015057667 0.0096895015 0.028062364 0.0
0002a0 ed 2c 12 3d e7 13 26 3f 00 00 00 00 00 00 00 00
       0.035687376 0.6487412 0.0 0.0
0002b0 30 3f 0a 3f 00 00 00 00 f3 01 23 3d 00 00 00 00
       0.54002666 0.0 0.03979678 0.0
0002c0 b4 ee 09 3f 9e 70 cd 3e 00 00 00 00 c9 3e c1 3e
       0.5387986 0.40124983 0.0 0.37743214
0002d0 e5 15 f1 3c 41 11 15 3f 00 00 00 00 fb 84 95 3d
       0.029429385 0.5822945 0.0 0.07300755
0002e0 04 00 00 00 7c 11 25 3f 00 00 00 00 2f 34 1d 3d
       6e-45 0.64479804 0.0 0.038379844
0002f0 00 00 00 00 00 00 00 00 00 00 00 00 45 2a de 3d
       0.0 0.0 0.0 0.10847906
000300 00 00 00 00 00 00 00 00 04 00 00 00 04 00 00 00
       0.0 0.0 6e-45 6e-45
000310 00 00 00 00 00 00 00 00 00 00 00 00 29 f1 d0 3d
       0.0 0.0 0.0 0.10202248
000320 00 00 00 00 04 00 00 00 04 00 00 00 fb 4e 05 3f
       0.0 6e-45 6e-45 0.5207364
000330 69 1d 1a 3f 5a b7 12 3f 04 00 00 00 56 3a 8d 3e
       0.60201126 0.5731102 6e-45 0.2758357
000340 00 00 00 00 04 00 00 00 00 00 00 00 04 00 00 00
       0.0 6e-45 0.0 6e-45
000350 00 00 00 00 04 00 00 00 00 00 00 00 0b ea 0b 3f
       0.0 6e-45 0.0 0.54653996
000360 f4 5d 2f 3e f9 20 93 3e 00 00 00 00 57 4b 3f 3f
       0.17125684 0.28736094 0.0 0.74724334
000370 00 00 00 00 00 00 00 00 00 00 00 00 00 00 00 00
       0.0 0.0 0.0 0.0
000380 fa 4e 66 3d 04 00 00 00 00 00 00 00 eb 44 15 3f
       0.05622766 6e-45 0.0 0.58308285
000390 ec b9 42 3f 00 00 00 00 04 00 00 00 04 00 00 00
       0.76064944 0.0 6e-45 6e-45
0003a0 04 00 00 00 00 00 00 00 19 7d f5 3b b8 da f7 3e
       6e-45 0.0 0.0074917194 0.48409057
0003b0 04 00 00 00 50 88 23 3d 04 00 00 00 04 00 00 00
       6e-45 0.03992492 6e-45 6e-45
0003c0 d4 9e ed 3c 68 c3 85 3f 00 00 00 00 04 00 00 00
       0.0290064 1.0450258 0.0 6e-45
0003d0 04 00 00 00 00 00 00 00 b8 d0 c6 3d 04 00 00 00
       6e-45 0.0 0.09707779 6e-45
0003e0 b0 be 2a 3f 00 00 00 00 7c 12 07 3f 27 55 c1 3e
       0.66697216 0.0 0.5276258 0.3776028
0003f0 00 00 00 00 f9 fa 04 3e 00 00 00 00 8e 7d eb 3e
       0.0 0.12986363 0.0 0.45994228

layers_a0.2.running_var f4 [800]
000000 04 00 00 00 04 00 00 00 db 86 f6 3c b2 4f 59 3d
       6e-45 6e-45 0.030093601 0.05305452
000010 04 00 00 00 04 00 00 00 9a 45 a2 3c de 43 58 3c
       6e-45 6e-45 0.01980858 0.013199775
000020 04 00 00 00 04 00 00 00 04 00 00 00 10 e7 25 3b
       6e-45 6e-45 6e-45 0.0025314726
000030 04 00 00 00 04 00 00 00 41 f5 8e 3c 04 00 00 00
       6e-45 6e-45 0.01745093 6e-45
000040 7b 90 03 3c 68 9f 42 3b 04 00 00 00 04 00 00 00
       0.008030052 0.0029697064 6e-45 6e-45
000050 e7 cd 6d 3c 04 00 00 00 75 2d 10 3c 6f 0c 43 3b
       0.014514423 6e-45 0.0087999 0.002976205
000060 31 0a 6c 3c 91 ec 8c 3b 04 00 00 00 04 00 00 00
       0.014406727 0.004300662 6e-45 6e-45
000070 04 00 00 00 04 00 00 00 ac 0b 9e 3c 04 00 00 00
       6e-45 6e-45 0.019292675 6e-45
000080 04 00 00 00 04 00 00 00 04 00 00 00 04 00 00 00
       6e-45 6e-45 6e-45 6e-45
000090 04 00 00 00 04 00 00 00 9a b5 05 3c 04 00 00 00
       6e-45 6e-45 0.008160973 6e-45
0000a0 1e d2 83 3a 04 00 00 00 4a 5a 7a 3b a1 dd 20 3c
       0.0010057127 6e-45 0.003820079 0.009818465
0000b0 04 00 00 00 fa 84 24 3c 04 00 00 00 04 00 00 00
       6e-45 0.01004147 6e-45 6e-45
0000c0 86 91 13 3d 04 00 00 00 04 00 00 00 04 00 00 00
       0.036027454 6e-45 6e-45 6e-45
0000d0 0d a5 50 3c 12 79 52 3a 04 00 00 00 38 21 19 3c
       0.012734664 0.0008028905 6e-45 0.009346299
0000e0 04 00 00 00 e4 24 62 3b 8f 07 8c 3b 04 00 00 00
       6e-45 0.0034506852 0.004273362 6e-45
0000f0 ab 0d be 3c 04 00 00 00 4d 07 da 3b e4 25 c8 3c
       0.023199877 6e-45 0.0066537024 0.02443213
000100 04 00 00 00 4d d3 d5 3b 1c 83 83 3c 61 17 97 3c
       6e-45 0.006525433 0.016053729 0.018443765
000110 92 5c 86 3b 04 00 00 00 04 00 00 00 04 00 00 00
       0.0041003907 6e-45 6e-45 6e-45
000120 04 00 00 00 04 00 00 00 ca e5 fb 3b 32 a7 a5 3b
       6e-45 6e-45 0.007687305 0.0050553316
000130 04 00 00 00 04 00 00 00 04 00 00 00 04 00 00 00
       6e-45 6e-45 6e-45 6e-45
000140 04 00 00 00 04 00 00 00 87 f1 fe 3b 04 00 00 00
       6e-45 6e-45 0.007780257 6e-45
000150 94 fa 78 35 ed 33 c5 3c 04 00 00 00 3e 87 d0 3c
       9.275184e-07 0.024072612 6e-45 0.025455114
000160 ed ed b6 3b b4 f9 0f 3b 04 00 00 00 fe 6b 00 3c
       0.005582562 0.0021968903 6e-45 0.007838247
000170 b4 47 b8 3b 44 18 23 3c 04 00 00 00 04 00 00 00
       0.005623782 0.009954516 6e-45 6e-45
000180 04 00 00 00 04 00 00 00 f5 64 a0 3c 04 00 00 00
       6e-45 6e-45 0.01957939 6e-45
000190 58 01 85 3b 04 00 00 00 04 00 00 00 04 00 00 00
       0.004058998 6e-45 6e-45 6e-45
0001a0 1a 0a 35 3b 04 00 00 00 04 00 00 00 04 00 00 00
       0.002762443 6e-45 6e-45 6e-45
0001b0 04 00 00 00 04 00 00 00 04 00 00 00 56 fe 0b 3c
       6e-45 6e-45 6e-45 0.008544525
0001c0 04 00 00 00 04 00 00 00 5a e4 a9 3b 04 00 00 00
       6e-45 6e-45 0.0051846923 6e-45
0001d0 04 00 00 00 1c a1 9c 39 3c 9e f2 3a a1 3a f3 3b
       6e-45 0.00029874675 0.0018510292 0.0074227606
0001e0 1c 0f 26 3b 2a 6c cb 3c 30 47 a4 38 23 6d 54 3b
       0.0025338596 0.02483185 7.833389e-05 0.0032413683
0001f0 7d 34 57 3c 5b 0d 28 3b 10 6d e6 3b 04 00 00 00
       0.013135073 0.0025642726 0.007032044 6e-45
000200 7d 47 c6 3c 04 00 00 00 6f d1 0f 3a 04 00 00 00
       0.02420401 6e-45 0.0005486225 6e-45
000210 cf 60 e4 3c b3 46 96 3b 04 00 00 00 da 99 71 3b
       0.027878193 0.0045860647 6e-45 0.0036865384
000220 35 0e d9 3a 04 00 00 00 cc 52 ae 3c 04 00 00 00
       0.001656002 6e-45 0.021279715 6e-45
000230 04 00 00 00 ff 4c e8 3c 04 00 00 00 08 92 94 3b
       6e-45 0.028357027 6e-45 0.00453401
000240 59 b5 5f 3c 04 00 00 00 9d 72 cc 3a 04 00 00 00
       0.0136540765 6e-45 0.0015598122 6e-45
000250 04 00 00 00 e5 c0 47 35 04 00 00 00 04 00 00 00
       6e-45 7.4413975e-07 6e-45 6e-45
000260 33 1a e0 3b 0e e7 df 3b a4 7c 61 3b 3c 8e 85 3b
       0.0068390607 0.006832964 0.0034406567 0.0040757935
000270 6a 62 a4 3b f9 c2 1e 3b 5e 68 63 3c ee 46 8d 3b
       0.0050166147 0.00242251 0.013879864 0.004311434
000280 04 00 00 00 04 00 00 00 1d 06 2d 3b 5e 33 f4 3b
       6e-45 6e-45 0.002640135 0.0074524125
000290 b7 a8 21 3b 5f 61 b1 39 f9 c5 2a 3b 04 00 00 00
       0.0024667212 0.00033832618 0.0026057942 6e-45
0002a0 e6 08 23 3c 4b 24 33 3d 04 00 00 00 04 00 00 00
       0.009950852 0.043735784 6e-45 6e-45
0002b0 9e f0 c1 3c 04 00 00 00 07 42 48 3b 04 00 00 00
       0.023674306 6e-45 0.0030556933 6e-45
0002c0 ce 1c 0c 3d 06 b7 8b 3b 04 00 00 00 85 43 90 3a
       0.034207158 0.0042637615 6e-45 0.001100645
0002d0 29 3e 17 3b e6 98 5e 3b 04 00 00 00 31 51 f6 3c
       0.0023077822 0.0033965646 6e-45 0.030068012
0002e0 04 00 00 00 80 5d 21 3b 04 00 00 00 50 3f ad 3b
       6e-45 0.002462238 6e-45 0.0052870885
0002f0 04 00 00 00 04 00 00 00 04 00 00 00 8b bf 03 3c
       6e-45 6e-45 6e-45 0.008041273
000300 04 00 00 00 04 00 00 00 04 00 00 00 04 00 00 00
       6e-45 6e-45 6e-45 6e-45
000310 04 00 00 00 04 00 00 00 04 00 00 00 fc 65 ee 3b
       6e-45 6e-45 6e-45 0.007275341
000320 04 00 00 00 04 00 00 00 04 00 00 00 3b 19 3f 3b
       6e-45 6e-45 6e-45 0.0029159326
000330 0a 92 8a 3b 00 cf 99 3b 04 00 00 00 26 67 e0 3b
       0.004228835 0.004693866 6e-45 0.0068482338
000340 04 00 00 00 04 00 00 00 04 00 00 00 04 00 00 00
       6e-45 6e-45 6e-45 6e-45
000350 04 00 00 00 04 00 00 00 04 00 00 00 07 3c 5e 3b
       6e-45 6e-45 6e-45 0.003391029
000360 d7 fb 1e 3c 88 16 7f 3b 04 00 00 00 34 4e cc 3b
       0.009703598 0.0038923342 6e-45 0.0062349085
000370 04 00 00 00 04 00 00 00 04 00 00 00 04 00 00 00
       6e-45 6e-45 6e-45 6e-45
000380 d7 4d e8 3b 04 00 00 00 04 00 00 00 06 e0 c2 3b
       0.0070893574 6e-45 6e-45 0.005947116
000390 da 4b 2d 3c 04 00 00 00 04 00 00 00 04 00 00 00
       0.010577166 6e-45 6e-45 6e-45
0003a0 04 00 00 00 04 00 00 00 04 5d 74 3a 80 39 24 3b
       6e-45 6e-45 0.0009321722 0.0025058687
0003b0 04 00 00 00 ff a1 ab 3b 04 00 00 00 04 00 00 00
       6e-45 0.0052378173 6e-45 6e-45
0003c0 75 64 d8 3b c3 5d d5 3c 04 00 00 00 04 00 00 00
       0.0066037723 0.026045686 6e-45 6e-45
0003d0 04 00 00 00 04 00 00 00 ce c5 31 3c 04 00 00 00
       6e-45 6e-45 0.010850383 6e-45
0003e0 4d 59 fc 3c 04 00 00 00 a2 dd 9c 3c a8 9a 6b 3b
       0.0308043 6e-45 0.019148652 0.0035950337
0003f0 04 00 00 00 62 86 1c 3c 04 00 00 00 f5 56 35 3b
       6e-45 0.009553524 6e-45 0.0027670239

layers_b0.0.weight f4 [1, 800]
000000 1a 5b 01 38 f4 51 b1 3a 50 2d a8 ba 9e 23 bf 39
       3.084084e-05 0.0013528452 -0.0012830887 0.00036456896
000010 b2 b8 96 b7 67 46 56 b6 e3 44 b9 ba ec b8 98 3b
       -1.7967399e-05 -3.1929465e-06 -0.001413491 0.0046607163
000020 f8 57 ea 37 48 f9 fb 38 1a dd 25 b9 db 48 41 bb
       2.7935937e-05 0.00012015045 -0.00015817993 -0.0029492888
000030 3d b3 be 38 d7 6c d0 b6 4d 2a 17 bb b3 9c ed b7
       9.093292e-05 -6.2115537e-06 -0.0023065985 -2.832557e-05
000040 20 3c f2 bb 00 0c b3 bb 49 61 bb 39 7a 26 b3 b7
       -0.0073924214 -0.005464077 0.00035739903 -2.135638e-05
000050 f9 14 3b bb b4 55 fd b5 41 6c 6d 3c 8e a6 93 38
       -0.0028546436 -1.8874912e-06 0.014491142 7.0405295e-05
000060 6a 33 38 3b 2f 07 e8 bb f8 91 58 b5 ee 06 49 b3
       0.0028106817 -0.0070809345 -8.0678683e-07 -4.6805262e-08
000070 31 19 15 ba 68 85 92 39 66 09 6f 39 a6 e8 e6 b4
       -0.0005687653 0.00027946685 0.00022796317 -4.3010112e-07
000080 75 10 2d 3a 06 d8 fa b7 ae 5b 1f b8 52 b9 f2 39
       0.00066018786 -2.9902916e-05 -3.7993937e-05 0.0004629591
000090 11 06 d1 3a db 0b 71 bb af 43 80 3b c7 18 e1 39
       0.0015947243 -0.0036780748 0.0039143185 0.00042933805
0000a0 74 a2 38 bb 6b 67 9b b8 ce 17 9a 3c d9 55 23 3c
       -0.0028173001 -7.410239e-05 0.01881018 0.009969198
0000b0 8f ae e5 b5 65 17 48 bc a2 13 25 39 93 cd 94 b6
       -1.7112633e-06 -0.012212609 0.0001574294 -4.4346757e-06
0000c0 81 e3 8b 3b 0b 61 21 ba 5a 4a 85 38 12 1c f1 3a
       0.004269064 -0.0006156123 6.355783e-05 0.0018395206
0000d0 f9 8f 88 bc 6f e6 c4 34 40 6e 68 37 45 a0 c1 ba
       -0.016670214 3.6675507e-07 1.3853947e-05 -0.0014772495
0000e0 fa a8 ac b8 d8 5c 9f b3 83 76 90 bb 47 66 a7 37
       -8.2330735e-05 -7.420903e-08 -0.004408659 1.9955578e-05
0000f0 f9 5b ea ba 8e cb 89 3a 41 c9 52 bc 5b 5d 28 3b
       -0.0017880193 0.0010512935 -0.0128653655 0.002569041
000100 e5 93 57 b9 72 64 c8 ba 04 eb 77 ba 22 f8 ad ba
       -0.00020559093 -0.0015288724 -0.00094573223 -0.0013272802
000110 9a 21 57 38 e3 f4 06 bb 38 03 ba 38 f5 3b a8 b7
       5.129129e-05 -0.0020592741 8.869771e-05 -2.005508e-05
000120 b5 28 8f 3b 83 07 13 3b 8f 04 07 3b 8e ca 87 39
       0.0043688663 0.0022434897 0.0020602082 0.00025900122
000130 a5 ff 5c 35 c8 32 94 b2 c5 05 92 37 3c 74 3e b6
       8.23284e-07 -1.725256e-08 1.7407243e-05 -2.8379864e-06
000140 1f ff 5c 3a 67 49 0d b8 82 3b b1 3c 31 92 01 37
       0.000843035 -3.368538e-05 0.02163482 7.723037e-06
000150 4a a4 95 bb 97 b2 83 bb ff e3 52 b8 88 0d 9f 3a
       -0.004566704 -0.0040190923 -5.028024e-05 0.001213477
000160 1f a3 7d bb 89 31 44 3c cf db 82 b9 92 73 32 b6
       -0.0038701964 0.011974701 -0.00024959302 -2.6591338e-06
000170 c0 cd 41 3c 1b 02 09 bd 7e b5 b6 3b 60 c0 23 b5
       0.01182884 -0.033449274 0.005575835 -6.1002174e-07
000180 ce 1c ea 36 34 13 ee b7 cc 1b 58 3b 15 b3 54 b8
       6.9770967e-06 -2.8380753e-05 0.0032975553 -5.0711522e-05
000190 d8 b5 9b 3c 40 c3 0c bb 51 23 9b b4 ce 4f 17 38
       0.019007608 -0.0021478683 -2.8896696e-07 3.607553e-05
0001a0 e3 e4 c1 3a 94 dc 55 b7 ad 04 24 38 01 5f ac b8
       0.0014792945 -1.2747147e-05 3.9105e-05 -8.219295e-05
0001b0 4c a6 20 38 f3 5c 94 ba 00 ab 70 35 78 9b e9 ba
       3.830185e-05 -0.0011319205 8.9655805e-07 -0.0017822823
0001c0 94 b3 62 ba 82 8a bf 39 37 d8 d6 3c ae 95 55 b8
       -0.0008647975 0.00036533555 0.026226146 -5.0922557e-05
0001d0 f8 04 67 37 53 ba c2 ba ea 66 76 bc 5e c9 80 3c
       1.376983e-05 -0.0014856554 -0.015039185 0.01572102
0001e0 80 a0 83 ba b5 44 da 3a 39 a0 cb ba 54 d5 b8 34
       -0.001004234 0.0016652556 -0.0015535421 3.4427887e-07
0001f0 cb 13 17 bb 67 52 c3 bc 3d 89 13 b9 9c 4d 43 3b
       -0.002305257 -0.023843003 -0.00014070138 0.0029800897
000200 0c 1b 12 3b 00 bd 1f 38 89 88 5e bc 9b d3 47 b8
       0.0022293953 3.8084574e-05 -0.013582357 -4.764237e-05
000210 a6 6b 80 3b e2 75 52 34 61 13 28 3a 67 57 b3 b8
       0.0039190827 1.960066e-07 0.0006411579 -8.551665e-05
000220 4a 03 86 3b a4 e0 91 38 8b d0 77 3b 31 9e 64 38
       0.0040897476 6.9559814e-05 0.003781351 5.4506763e-05
000230 92 2f 24 ba 95 8d 6d 3a ac 4a 1e b7 25 e9 87 3c
       -0.0006263192 0.000906193 -9.43492e-06 0.016590664
000240 d6 fe c1 3a 6a 97 01 b9 fb a7 c0 3a 66 21 bd 3a
       0.0014800678 -0.00012358805 0.00146985 0.0014429509
000250 dd 77 ab 38 c3 f0 0f bc 54 bc 1b 3a 6c d8 65 36
       8.176242e-05 -0.008785429 0.0005940844 3.4249633e-06
000260 3f 66 48 b9 14 cc 6e 3c f3 06 9e b7 25 9f a9 b9
       -0.00019111576 0.014575023 -1.8838304e-05 -0.00032352764
000270 98 da 0f bb 82 a4 85 3a 7b a0 97 b9 65 6d 5e 3a
       -0.002195036 0.0010196122 -0.00028920532 0.0008484929
000280 ca c8 cc b7 7f 77 ca 39 65 08 0f bc 50 f2 59 3c
       -2.4412195e-05 0.00038617474 -0.008730029 0.013302401
000290 f7 9d ac 3b c5 89 12 bc 33 3e bd ba 13 9c 92 37
       0.0052678543 -0.00894398 -0.0014438092 1.7477234e-05
0002a0 28 b8 b5 3b a9 22 8b 3b 6a 98 f3 39 b4 74 c0 34
       0.005545635 0.004246075 0.0004646213 3.58477e-07
0002b0 c8 da 26 3b 33 25 dc ba a8 26 ac 39 4d c5 38 b7
       0.0025459994 -0.0016795754 0.00032835198 -1.1013192e-05
0002c0 b6 1e 60 3b 07 62 e4 bc 99 2e ee b9 e2 7a 37 3c
       0.0034197993 -0.027878774 -0.00045429615 0.011198731
0002d0 df b8 d6 3b 66 d1 10 37 10 10 65 37 06 09 5b ba
       0.0065528 8.631823e-06 1.36532035e-05 -0.00083555316
0002e0 38 78 d2 3a aa cb f2 37 22 d4 70 3a 8f 1b 37 ba
       0.0016057556 2.8943487e-05 0.00091868837 -0.00069850025
0002f0 ab f4 37 39 fc 87 bb 38 fa 72 d0 3a da c5 2f 3c
       0.00017543386 8.942184e-05 0.0015903406 0.010728324
000300 b9 f0 1a 39 4f 58 00 ba 2c a7 d9 ba cb 2a e0 b9
       0.0001477626 -0.00048959715 -0.0016605607 -0.00042756493
000310 6c ca 14 38 bf 56 8d b8 b6 94 2e b8 a3 a7 fa bc
       3.547447e-05 -6.739562e-05 -4.162333e-05 -0.030597514
000320 80 58 2c 38 a4 07 b8 b8 a6 c5 2c 3a 28 76 92 3b
       4.1090418e-05 -8.775227e-05 0.0006590731 0.0044696517
000330 46 6f 9b 3c a7 e6 77 ba 78 86 51 39 17 26 22 3c
       0.018973958 -0.0009456672 0.00019981887 0.009896777
000340 46 65 8c ba 75 bc 35 b6 5d 8b d4 36 29 d8 88 39
       -0.0010711334 -2.7080798e-06 6.3343164e-06 0.00026100993
000350 10 23 6e ba 3d ec 3e b8 92 36 ec b9 31 de 0f 3b
       -0.0009084204 -4.5519544e-05 -0.00045054086 0.0021952505
000360 21 42 5f 3b bd 02 45 ba 80 6d 16 34 98 7f 34 ba
       0.0034066516 -0.00075153616 1.4009674e-07 -0.0006885468
000370 5c 74 ed b9 b4 8a b8 3a 31 41 3f ba df 40 7e 3a
       -0.00045290857 0.0014079423 -0.0007295786 0.00096989976
000380 b2 ce 11 bc 0d c6 8f b7 3b 45 ee 31 fd 59 19 38
       -0.008899378 -1.7139153e-05 6.9345822e-09 3.656185e-05
000390 e0 f8 b4 3a 18 73 8a 38 21 fe cc b9 49 34 63 bb
       0.0013807081 6.601791e-05 -0.00039099253 -0.0034668616
0003a0 bb b8 12 b7 ea 3f b0 b7 79 04 81 3c 27 08 e4 bc
       -8.745289e-06 -2.1010597e-05 0.015749203 -0.027835919
0003b0 05 db 6e 37 aa ff 72 3c af e5 8d b5 5f 4c ef b5
       1.42369e-05 0.014831463 -1.0572165e-06 -1.7829115e-06
0003c0 f5 52 24 bb 1c e9 89 3b f8 5b 96 3a 8b f2 9e ba
       -0.002507386 0.004208697 0.0011471501 -0.0012126727
0003d0 2f 9d 39 3a c9 80 8d ba 29 22 a3 3c b6 4b 88 b7
       0.0007080612 -0.0010795827 0.01991375 -1.6247719e-05
0003e0 52 0e 5f bb 00 e9 99 38 67 b7 a1 3a a6 fb 85 b8
       -0.0034035635 7.339008e-05 0.0012337983 -6.3888074e-05
0003f0 fa d2 df 35 21 41 6e bc 02 cb db b7 a8 a3 d7 ba
       1.6676197e-06 -0.014541895 -2.6201367e-05 -0.0016451972
